…
I0118 23:26:36.196249 17193 net.cpp:322] The NetState phase (0) differed from the phase (1) specified by a rule in layer data
I0118 23:26:36.196277 17193 net.cpp:322] The NetState phase (0) differed from the phase (1) specified by a rule in layer accuracy
I0118 23:26:36.196439 17193 net.cpp:49] Initializing net from parameters: 
name: "AlexNet"
state {
  phase: TRAIN
}
layer {
  name: "data"
  type: "HDF5Data"
  top: "data"
  top: "label"
  include {
    phase: TRAIN
  }
  hdf5_data_param {
    source: "data/train_loc.txt"
    batch_size: 10
  }
}
layer {
  name: "my_conv1"
  type: "Convolution"
  bottom: "data"
  top: "my_conv1"
  param {
    lr_mult: 1
    decay_mult: 1
  }
  param {
    lr_mult: 2
    decay_mult: 0
  }
  convolution_param {
    num_output: 96
    kernel_size: 11
    stride: 1
    weight_filler {
      type: "gaussian"
      std: 0.01
    }
    bias_filler {
      type: "constant"
      value: 0
    }
  }
}
layer {
  name: "relu1"
  type: "ReLU"
  bottom: "my_conv1"
  top: "my_conv1"
}
layer {
  name: "norm1"
  type: "LRN"
  bottom: "my_conv1"
  top: "norm1"
  lrn_param {
    local_size: 5
    alpha: 0.0001
    beta: 0.75
  }
}
layer {
  name: "pool1"
  type: "Pooling"
  bottom: "norm1"
  top: "pool1"
  pooling_param {
    pool: MAX
    kernel_size: 3
    stride: 2
  }
}
layer {
  name: "conv2"
  type: "Convolution"
  bottom: "pool1"
  top: "conv2"
  param {
    lr_mult: 1
    decay_mult: 1
  }
  param {
    lr_mult: 2
    decay_mult: 0
  }
  convolution_param {
    num_output: 256
    pad: 2
    kernel_size: 5
    group: 2
    weight_filler {
      type: "gaussian"
      std: 0.01
    }
    bias_filler {
      type: "constant"
      value: 0.1
    }
  }
}
layer {
  name: "relu2"
  type: "ReLU"
  bottom: "conv2"
  top: "conv2"
}
layer {
  name: "norm2"
  type: "LRN"
  bottom: "conv2"
  top: "norm2"
  lrn_param {
    local_size: 5
    alpha: 0.0001
    beta: 0.75
  }
}
layer {
  name: "pool2"
  type: "Pooling"
  bottom: "norm2"
  top: "pool2"
  pooling_param {
    pool: MAX
    kernel_size: 3
    stride: 2
  }
}
layer {
  name: "conv3"
  type: "Convolution"
  bottom: "pool2"
  top: "conv3"
  param {
    lr_mult: 1
    decay_mult: 1
  }
  param {
    lr_mult: 2
    decay_mult: 0
  }
  convolution_param {
    num_output: 384
    pad: 1
    kernel_size: 3
    weight_filler {
      type: "gaussian"
      std: 0.01
    }
    bias_filler {
      type: "constant"
      value: 0
    }
  }
}
layer {
  name: "relu3"
  type: "ReLU"
  bottom: "conv3"
  top: "conv3"
}
layer {
  name: "conv4"
  type: "Convolution"
  bottom: "conv3"
  top: "conv4"
  param {
    lr_mult: 1
    decay_mult: 1
  }
  param {
    lr_mult: 2
    decay_mult: 0
  }
  convolution_param {
    num_output: 384
    pad: 1
    kernel_size: 3
    group: 2
    weight_filler {
      type: "gaussian"
      std: 0.01
    }
    bias_filler {
      type: "constant"
      value: 0.1
    }
  }
}
layer {
  name: "relu4"
  type: "ReLU"
  bottom: "conv4"
  top: "conv4"
}
layer {
  name: "conv5"
  type: "Convolution"
  bottom: "conv4"
  top: "conv5"
  param {
    lr_mult: 1
    decay_mult: 1
  }
  param {
    lr_mult: 2
    decay_mult: 0
  }
  convolution_param {
    num_output: 256
    pad: 1
    kernel_size: 3
    group: 2
    weight_filler {
      type: "gaussian"
      std: 0.01
    }
    bias_filler {
      type: "constant"
      value: 0.1
    }
  }
}
layer {
  name: "relu5"
  type: "ReLU"
  bottom: "conv5"
  top: "conv5"
}
layer {
  name: "pool5"
  type: "Pooling"
  bottom: "conv5"
  top: "pool5"
  pooling_param {
    pool: MAX
    kernel_size: 3
    stride: 2
  }
}
layer {
  name: "my_fc6"
  type: "InnerProduct"
  bottom: "pool5"
  top: "my_fc6"
  param {
    lr_mult: 1
    decay_mult: 1
  }
  param {
    lr_mult: 2
    decay_mult: 0
  }
  inner_product_param {
    num_output: 4096
    weight_filler {
      type: "gaussian"
      std: 0.005
    }
    bias_filler {
      type: "constant"
      value: 0.1
    }
  }
}
layer {
  name: "relu6"
  type: "ReLU"
  bottom: "my_fc6"
  top: "my_fc6"
}
layer {
  name: "drop6"
  type: "Dropout"
  bottom: "my_fc6"
  top: "my_fc6"
  dropout_param {
    dropout_ratio: 0.5
  }
}
layer {
  name: "fc7"
  type: "InnerProduct"
  bottom: "my_fc6"
  top: "fc7"
  param {
    lr_mult: 1
    decay_mult: 1
  }
  param {
    lr_mult: 2
    decay_mult: 0
  }
  inner_product_param {
    num_output: 4096
    weight_filler {
      type: "gaussian"
      std: 0.005
    }
    bias_filler {
      type: "constant"
      value: 0.1
    }
  }
}
layer {
  name: "relu7"
  type: "ReLU"
  bottom: "fc7"
  top: "fc7"
}
layer {
  name: "drop7"
  type: "Dropout"
  bottom: "fc7"
  top: "fc7"
  dropout_param {
    dropout_ratio: 0.5
  }
}
layer {
  name: "my_fc8"
  type: "InnerProduct"
  bottom: "fc7"
  top: "my_fc8"
  param {
    lr_mult: 1
    decay_mult: 1
  }
  param {
    lr_mult: 2
    decay_mult: 0
  }
  inner_product_param {
    num_output: 5
    weight_filler {
      type: "gaussian"
      std: 0.01
    }
    bias_filler {
      type: "constant"
      value: 0
    }
  }
}
layer {
  name: "loss"
  type: "SoftmaxWithLoss"
  bottom: "my_fc8"
  bottom: "label"
  top: "loss"
}
I0118 23:26:36.196555 17193 layer_factory.hpp:77] Creating layer data
I0118 23:26:36.196571 17193 net.cpp:106] Creating Layer data
I0118 23:26:36.196578 17193 net.cpp:411] data -> data
I0118 23:26:36.196606 17193 net.cpp:411] data -> label
I0118 23:26:36.196620 17193 hdf5_data_layer.cpp:79] Loading list of HDF5 filenames from: data/train_loc.txt
I0118 23:26:36.197348 17193 hdf5_data_layer.cpp:93] Number of HDF5 files: 2914
I0118 23:26:36.198154 17193 hdf5.cpp:32] Datatype class: H5T_FLOAT
I0118 23:26:37.101034 17193 hdf5.cpp:35] Datatype class: H5T_INTEGER
I0118 23:26:37.101243 17193 net.cpp:150] Setting up data
I0118 23:26:37.101282 17193 net.cpp:157] Top shape: 10 1 112 112 (125440)
I0118 23:26:37.101286 17193 net.cpp:157] Top shape: 10 (10)
I0118 23:26:37.101289 17193 net.cpp:165] Memory required for data: 501800
I0118 23:26:37.101307 17193 layer_factory.hpp:77] Creating layer my_conv1
I0118 23:26:37.101343 17193 net.cpp:106] Creating Layer my_conv1
I0118 23:26:37.101349 17193 net.cpp:454] my_conv1 <- data
I0118 23:26:37.101359 17193 net.cpp:411] my_conv1 -> my_conv1
I0118 23:26:37.540416 17193 net.cpp:150] Setting up my_conv1
I0118 23:26:37.540446 17193 net.cpp:157] Top shape: 10 96 102 102 (9987840)
I0118 23:26:37.540449 17193 net.cpp:165] Memory required for data: 40453160
I0118 23:26:37.540470 17193 layer_factory.hpp:77] Creating layer relu1
I0118 23:26:37.540483 17193 net.cpp:106] Creating Layer relu1
I0118 23:26:37.540489 17193 net.cpp:454] relu1 <- my_conv1
I0118 23:26:37.540505 17193 net.cpp:397] relu1 -> my_conv1 (in-place)
I0118 23:26:37.540652 17193 net.cpp:150] Setting up relu1
I0118 23:26:37.540658 17193 net.cpp:157] Top shape: 10 96 102 102 (9987840)
I0118 23:26:37.540671 17193 net.cpp:165] Memory required for data: 80404520
I0118 23:26:37.540674 17193 layer_factory.hpp:77] Creating layer norm1
I0118 23:26:37.540685 17193 net.cpp:106] Creating Layer norm1
I0118 23:26:37.540688 17193 net.cpp:454] norm1 <- my_conv1
I0118 23:26:37.540693 17193 net.cpp:411] norm1 -> norm1
I0118 23:26:37.540958 17193 net.cpp:150] Setting up norm1
I0118 23:26:37.540968 17193 net.cpp:157] Top shape: 10 96 102 102 (9987840)
I0118 23:26:37.540980 17193 net.cpp:165] Memory required for data: 120355880
I0118 23:26:37.540983 17193 layer_factory.hpp:77] Creating layer pool1
I0118 23:26:37.540992 17193 net.cpp:106] Creating Layer pool1
I0118 23:26:37.540995 17193 net.cpp:454] pool1 <- norm1
I0118 23:26:37.541000 17193 net.cpp:411] pool1 -> pool1
I0118 23:26:37.541055 17193 net.cpp:150] Setting up pool1
I0118 23:26:37.541084 17193 net.cpp:157] Top shape: 10 96 51 51 (2496960)
I0118 23:26:37.541097 17193 net.cpp:165] Memory required for data: 130343720
I0118 23:26:37.541100 17193 layer_factory.hpp:77] Creating layer conv2
I0118 23:26:37.541110 17193 net.cpp:106] Creating Layer conv2
I0118 23:26:37.541112 17193 net.cpp:454] conv2 <- pool1
I0118 23:26:37.541116 17193 net.cpp:411] conv2 -> conv2
I0118 23:26:37.550799 17193 net.cpp:150] Setting up conv2
I0118 23:26:37.550814 17193 net.cpp:157] Top shape: 10 256 51 51 (6658560)
I0118 23:26:37.550818 17193 net.cpp:165] Memory required for data: 156977960
I0118 23:26:37.550827 17193 layer_factory.hpp:77] Creating layer relu2
I0118 23:26:37.550833 17193 net.cpp:106] Creating Layer relu2
I0118 23:26:37.550837 17193 net.cpp:454] relu2 <- conv2
I0118 23:26:37.550840 17193 net.cpp:397] relu2 -> conv2 (in-place)
I0118 23:26:37.551095 17193 net.cpp:150] Setting up relu2
I0118 23:26:37.551105 17193 net.cpp:157] Top shape: 10 256 51 51 (6658560)
I0118 23:26:37.551117 17193 net.cpp:165] Memory required for data: 183612200
I0118 23:26:37.551120 17193 layer_factory.hpp:77] Creating layer norm2
I0118 23:26:37.551126 17193 net.cpp:106] Creating Layer norm2
I0118 23:26:37.551128 17193 net.cpp:454] norm2 <- conv2
I0118 23:26:37.551133 17193 net.cpp:411] norm2 -> norm2
I0118 23:26:37.551321 17193 net.cpp:150] Setting up norm2
I0118 23:26:37.551337 17193 net.cpp:157] Top shape: 10 256 51 51 (6658560)
I0118 23:26:37.551339 17193 net.cpp:165] Memory required for data: 210246440
I0118 23:26:37.551352 17193 layer_factory.hpp:77] Creating layer pool2
I0118 23:26:37.551359 17193 net.cpp:106] Creating Layer pool2
I0118 23:26:37.551362 17193 net.cpp:454] pool2 <- norm2
I0118 23:26:37.551367 17193 net.cpp:411] pool2 -> pool2
I0118 23:26:37.551414 17193 net.cpp:150] Setting up pool2
I0118 23:26:37.551420 17193 net.cpp:157] Top shape: 10 256 25 25 (1600000)
I0118 23:26:37.551422 17193 net.cpp:165] Memory required for data: 216646440
I0118 23:26:37.551425 17193 layer_factory.hpp:77] Creating layer conv3
I0118 23:26:37.551434 17193 net.cpp:106] Creating Layer conv3
I0118 23:26:37.551437 17193 net.cpp:454] conv3 <- pool2
I0118 23:26:37.551442 17193 net.cpp:411] conv3 -> conv3
I0118 23:26:37.575929 17193 net.cpp:150] Setting up conv3
I0118 23:26:37.575953 17193 net.cpp:157] Top shape: 10 384 25 25 (2400000)
I0118 23:26:37.575956 17193 net.cpp:165] Memory required for data: 226246440
I0118 23:26:37.575968 17193 layer_factory.hpp:77] Creating layer relu3
I0118 23:26:37.575976 17193 net.cpp:106] Creating Layer relu3
I0118 23:26:37.575979 17193 net.cpp:454] relu3 <- conv3
I0118 23:26:37.575985 17193 net.cpp:397] relu3 -> conv3 (in-place)
I0118 23:26:37.576242 17193 net.cpp:150] Setting up relu3
I0118 23:26:37.576252 17193 net.cpp:157] Top shape: 10 384 25 25 (2400000)
I0118 23:26:37.576256 17193 net.cpp:165] Memory required for data: 235846440
I0118 23:26:37.576258 17193 layer_factory.hpp:77] Creating layer conv4
I0118 23:26:37.576269 17193 net.cpp:106] Creating Layer conv4
I0118 23:26:37.576272 17193 net.cpp:454] conv4 <- conv3
I0118 23:26:37.576277 17193 net.cpp:411] conv4 -> conv4
I0118 23:26:37.594876 17193 net.cpp:150] Setting up conv4
I0118 23:26:37.594890 17193 net.cpp:157] Top shape: 10 384 25 25 (2400000)
I0118 23:26:37.594893 17193 net.cpp:165] Memory required for data: 245446440
I0118 23:26:37.594899 17193 layer_factory.hpp:77] Creating layer relu4
I0118 23:26:37.594907 17193 net.cpp:106] Creating Layer relu4
I0118 23:26:37.594909 17193 net.cpp:454] relu4 <- conv4
I0118 23:26:37.594914 17193 net.cpp:397] relu4 -> conv4 (in-place)
I0118 23:26:37.595156 17193 net.cpp:150] Setting up relu4
I0118 23:26:37.595166 17193 net.cpp:157] Top shape: 10 384 25 25 (2400000)
I0118 23:26:37.595178 17193 net.cpp:165] Memory required for data: 255046440
I0118 23:26:37.595181 17193 layer_factory.hpp:77] Creating layer conv5
I0118 23:26:37.595191 17193 net.cpp:106] Creating Layer conv5
I0118 23:26:37.595193 17193 net.cpp:454] conv5 <- conv4
I0118 23:26:37.595201 17193 net.cpp:411] conv5 -> conv5
I0118 23:26:37.608178 17193 net.cpp:150] Setting up conv5
I0118 23:26:37.608193 17193 net.cpp:157] Top shape: 10 256 25 25 (1600000)
I0118 23:26:37.608196 17193 net.cpp:165] Memory required for data: 261446440
I0118 23:26:37.608209 17193 layer_factory.hpp:77] Creating layer relu5
I0118 23:26:37.608216 17193 net.cpp:106] Creating Layer relu5
I0118 23:26:37.608218 17193 net.cpp:454] relu5 <- conv5
I0118 23:26:37.608225 17193 net.cpp:397] relu5 -> conv5 (in-place)
I0118 23:26:37.608491 17193 net.cpp:150] Setting up relu5
I0118 23:26:37.608501 17193 net.cpp:157] Top shape: 10 256 25 25 (1600000)
I0118 23:26:37.608513 17193 net.cpp:165] Memory required for data: 267846440
I0118 23:26:37.608515 17193 layer_factory.hpp:77] Creating layer pool5
I0118 23:26:37.608521 17193 net.cpp:106] Creating Layer pool5
I0118 23:26:37.608525 17193 net.cpp:454] pool5 <- conv5
I0118 23:26:37.608541 17193 net.cpp:411] pool5 -> pool5
I0118 23:26:37.608585 17193 net.cpp:150] Setting up pool5
I0118 23:26:37.608592 17193 net.cpp:157] Top shape: 10 256 12 12 (368640)
I0118 23:26:37.608604 17193 net.cpp:165] Memory required for data: 269321000
I0118 23:26:37.608608 17193 layer_factory.hpp:77] Creating layer my_fc6
I0118 23:26:37.608623 17193 net.cpp:106] Creating Layer my_fc6
I0118 23:26:37.608654 17193 net.cpp:454] my_fc6 <- pool5
I0118 23:26:37.608672 17193 net.cpp:411] my_fc6 -> my_fc6
I0118 23:26:41.579798 17193 net.cpp:150] Setting up my_fc6
I0118 23:26:41.579825 17193 net.cpp:157] Top shape: 10 4096 (40960)
I0118 23:26:41.579828 17193 net.cpp:165] Memory required for data: 269484840
I0118 23:26:41.579836 17193 layer_factory.hpp:77] Creating layer relu6
I0118 23:26:41.579844 17193 net.cpp:106] Creating Layer relu6
I0118 23:26:41.579849 17193 net.cpp:454] relu6 <- my_fc6
I0118 23:26:41.579854 17193 net.cpp:397] relu6 -> my_fc6 (in-place)
I0118 23:26:41.580054 17193 net.cpp:150] Setting up relu6
I0118 23:26:41.580061 17193 net.cpp:157] Top shape: 10 4096 (40960)
I0118 23:26:41.580073 17193 net.cpp:165] Memory required for data: 269648680
I0118 23:26:41.580076 17193 layer_factory.hpp:77] Creating layer drop6
I0118 23:26:41.580087 17193 net.cpp:106] Creating Layer drop6
I0118 23:26:41.580090 17193 net.cpp:454] drop6 <- my_fc6
I0118 23:26:41.580096 17193 net.cpp:397] drop6 -> my_fc6 (in-place)
I0118 23:26:41.580145 17193 net.cpp:150] Setting up drop6
I0118 23:26:41.580150 17193 net.cpp:157] Top shape: 10 4096 (40960)
I0118 23:26:41.580153 17193 net.cpp:165] Memory required for data: 269812520
I0118 23:26:41.580155 17193 layer_factory.hpp:77] Creating layer fc7
I0118 23:26:41.580163 17193 net.cpp:106] Creating Layer fc7
I0118 23:26:41.580166 17193 net.cpp:454] fc7 <- my_fc6
I0118 23:26:41.580171 17193 net.cpp:411] fc7 -> fc7
I0118 23:26:42.019884 17193 net.cpp:150] Setting up fc7
I0118 23:26:42.019912 17193 net.cpp:157] Top shape: 10 4096 (40960)
I0118 23:26:42.019914 17193 net.cpp:165] Memory required for data: 269976360
I0118 23:26:42.019923 17193 layer_factory.hpp:77] Creating layer relu7
I0118 23:26:42.019933 17193 net.cpp:106] Creating Layer relu7
I0118 23:26:42.019938 17193 net.cpp:454] relu7 <- fc7
I0118 23:26:42.019945 17193 net.cpp:397] relu7 -> fc7 (in-place)
I0118 23:26:42.020357 17193 net.cpp:150] Setting up relu7
I0118 23:26:42.020380 17193 net.cpp:157] Top shape: 10 4096 (40960)
I0118 23:26:42.020382 17193 net.cpp:165] Memory required for data: 270140200
I0118 23:26:42.020385 17193 layer_factory.hpp:77] Creating layer drop7
I0118 23:26:42.020395 17193 net.cpp:106] Creating Layer drop7
I0118 23:26:42.020398 17193 net.cpp:454] drop7 <- fc7
I0118 23:26:42.020406 17193 net.cpp:397] drop7 -> fc7 (in-place)
I0118 23:26:42.020454 17193 net.cpp:150] Setting up drop7
I0118 23:26:42.020459 17193 net.cpp:157] Top shape: 10 4096 (40960)
I0118 23:26:42.020472 17193 net.cpp:165] Memory required for data: 270304040
I0118 23:26:42.020473 17193 layer_factory.hpp:77] Creating layer my_fc8
I0118 23:26:42.020493 17193 net.cpp:106] Creating Layer my_fc8
I0118 23:26:42.020495 17193 net.cpp:454] my_fc8 <- fc7
I0118 23:26:42.020501 17193 net.cpp:411] my_fc8 -> my_fc8
I0118 23:26:42.021633 17193 net.cpp:150] Setting up my_fc8
I0118 23:26:42.021644 17193 net.cpp:157] Top shape: 10 5 (50)
I0118 23:26:42.021646 17193 net.cpp:165] Memory required for data: 270304240
I0118 23:26:42.021652 17193 layer_factory.hpp:77] Creating layer loss
I0118 23:26:42.021662 17193 net.cpp:106] Creating Layer loss
I0118 23:26:42.021666 17193 net.cpp:454] loss <- my_fc8
I0118 23:26:42.021669 17193 net.cpp:454] loss <- label
I0118 23:26:42.021675 17193 net.cpp:411] loss -> loss
I0118 23:26:42.021709 17193 layer_factory.hpp:77] Creating layer loss
…
I0118 23:26:42.022295 17193 net.cpp:283] Network initialization done.
I0118 23:26:42.022817 17193 solver.cpp:181] Creating test net (#0) specified by net file: models/alexnet/train_val.prototxt
I0118 23:26:42.022873 17193 net.cpp:322] The NetState phase (1) differed from the phase (0) specified by a rule in layer data
I0118 23:26:42.023047 17193 net.cpp:49] Initializing net from parameters: 
name: "AlexNet"
state {
  phase: TEST
}
layer {
  name: "data"
  type: "HDF5Data"
  top: "data"
  top: "label"
  include {
    phase: TEST
  }
  hdf5_data_param {
    source: "data/test_loc.txt"
    batch_size: 10
  }
}
layer {
  name: "my_conv1"
  type: "Convolution"
  bottom: "data"
  top: "my_conv1"
  param {
    lr_mult: 1
    decay_mult: 1
  }
  param {
    lr_mult: 2
    decay_mult: 0
  }
  convolution_param {
    num_output: 96
    kernel_size: 11
    stride: 1
    weight_filler {
      type: "gaussian"
      std: 0.01
    }
    bias_filler {
      type: "constant"
      value: 0
    }
  }
}
layer {
  name: "relu1"
  type: "ReLU"
  bottom: "my_conv1"
  top: "my_conv1"
}
layer {
  name: "norm1"
  type: "LRN"
  bottom: "my_conv1"
  top: "norm1"
  lrn_param {
    local_size: 5
    alpha: 0.0001
    beta: 0.75
  }
}
layer {
  name: "pool1"
  type: "Pooling"
  bottom: "norm1"
  top: "pool1"
  pooling_param {
    pool: MAX
    kernel_size: 3
    stride: 2
  }
}
layer {
  name: "conv2"
  type: "Convolution"
  bottom: "pool1"
  top: "conv2"
  param {
    lr_mult: 1
    decay_mult: 1
  }
  param {
    lr_mult: 2
    decay_mult: 0
  }
  convolution_param {
    num_output: 256
    pad: 2
    kernel_size: 5
    group: 2
    weight_filler {
      type: "gaussian"
      std: 0.01
    }
    bias_filler {
      type: "constant"
      value: 0.1
    }
  }
}
layer {
  name: "relu2"
  type: "ReLU"
  bottom: "conv2"
  top: "conv2"
}
layer {
  name: "norm2"
  type: "LRN"
  bottom: "conv2"
  top: "norm2"
  lrn_param {
    local_size: 5
    alpha: 0.0001
    beta: 0.75
  }
}
layer {
  name: "pool2"
  type: "Pooling"
  bottom: "norm2"
  top: "pool2"
  pooling_param {
    pool: MAX
    kernel_size: 3
    stride: 2
  }
}
layer {
  name: "conv3"
  type: "Convolution"
  bottom: "pool2"
  top: "conv3"
  param {
    lr_mult: 1
    decay_mult: 1
  }
  param {
    lr_mult: 2
    decay_mult: 0
  }
  convolution_param {
    num_output: 384
    pad: 1
    kernel_size: 3
    weight_filler {
      type: "gaussian"
      std: 0.01
    }
    bias_filler {
      type: "constant"
      value: 0
    }
  }
}
layer {
  name: "relu3"
  type: "ReLU"
  bottom: "conv3"
  top: "conv3"
}
layer {
  name: "conv4"
  type: "Convolution"
  bottom: "conv3"
  top: "conv4"
  param {
    lr_mult: 1
    decay_mult: 1
  }
  param {
    lr_mult: 2
    decay_mult: 0
  }
  convolution_param {
    num_output: 384
    pad: 1
    kernel_size: 3
    group: 2
    weight_filler {
      type: "gaussian"
      std: 0.01
    }
    bias_filler {
      type: "constant"
      value: 0.1
    }
  }
}
layer {
  name: "relu4"
  type: "ReLU"
  bottom: "conv4"
  top: "conv4"
}
layer {
  name: "conv5"
  type: "Convolution"
  bottom: "conv4"
  top: "conv5"
  param {
    lr_mult: 1
    decay_mult: 1
  }
  param {
    lr_mult: 2
    decay_mult: 0
  }
  convolution_param {
    num_output: 256
    pad: 1
    kernel_size: 3
    group: 2
    weight_filler {
      type: "gaussian"
      std: 0.01
    }
    bias_filler {
      type: "constant"
      value: 0.1
    }
  }
}
layer {
  name: "relu5"
  type: "ReLU"
  bottom: "conv5"
  top: "conv5"
}
layer {
  name: "pool5"
  type: "Pooling"
  bottom: "conv5"
  top: "pool5"
  pooling_param {
    pool: MAX
    kernel_size: 3
    stride: 2
  }
}
layer {
  name: "my_fc6"
  type: "InnerProduct"
  bottom: "pool5"
  top: "my_fc6"
  param {
    lr_mult: 1
    decay_mult: 1
  }
  param {
    lr_mult: 2
    decay_mult: 0
  }
  inner_product_param {
    num_output: 4096
    weight_filler {
      type: "gaussian"
      std: 0.005
    }
    bias_filler {
      type: "constant"
      value: 0.1
    }
  }
}
layer {
  name: "relu6"
  type: "ReLU"
  bottom: "my_fc6"
  top: "my_fc6"
}
layer {
  name: "drop6"
  type: "Dropout"
  bottom: "my_fc6"
  top: "my_fc6"
  dropout_param {
    dropout_ratio: 0.5
  }
}
layer {
  name: "fc7"
  type: "InnerProduct"
  bottom: "my_fc6"
  top: "fc7"
  param {
    lr_mult: 1
    decay_mult: 1
  }
  param {
    lr_mult: 2
    decay_mult: 0
  }
  inner_product_param {
    num_output: 4096
    weight_filler {
      type: "gaussian"
      std: 0.005
    }
    bias_filler {
      type: "constant"
      value: 0.1
    }
  }
}
layer {
  name: "relu7"
  type: "ReLU"
  bottom: "fc7"
  top: "fc7"
}
layer {
  name: "drop7"
  type: "Dropout"
  bottom: "fc7"
  top: "fc7"
  dropout_param {
    dropout_ratio: 0.5
  }
}
layer {
  name: "my_fc8"
  type: "InnerProduct"
  bottom: "fc7"
  top: "my_fc8"
  param {
    lr_mult: 1
    decay_mult: 1
  }
  param {
    lr_mult: 2
    decay_mult: 0
  }
  inner_product_param {
    num_output: 5
    weight_filler {
      type: "gaussian"
      std: 0.01
    }
    bias_filler {
      type: "constant"
      value: 0
    }
  }
}
layer {
  name: "accuracy"
  type: "Accuracy"
  bottom: "my_fc8"
  bottom: "label"
  top: "accuracy"
  include {
    phase: TEST
  }
}
layer {
  name: "loss"
  type: "SoftmaxWithLoss"
  bottom: "my_fc8"
  bottom: "label"
  top: "loss"
}
I0118 23:26:42.023160 17193 layer_factory.hpp:77] Creating layer data
I0118 23:26:42.023170 17193 net.cpp:106] Creating Layer data
I0118 23:26:42.023190 17193 net.cpp:411] data -> data
I0118 23:26:42.023212 17193 net.cpp:411] data -> label
I0118 23:26:42.023218 17193 hdf5_data_layer.cpp:79] Loading list of HDF5 filenames from: data/test_loc.txt
I0118 23:26:42.023926 17193 hdf5_data_layer.cpp:93] Number of HDF5 files: 2914
I0118 23:26:42.024498 17193 net.cpp:150] Setting up data
I0118 23:26:42.024509 17193 net.cpp:157] Top shape: 10 1 112 112 (125440)
I0118 23:26:42.024513 17193 net.cpp:157] Top shape: 10 (10)
I0118 23:26:42.024515 17193 net.cpp:165] Memory required for data: 501800
I0118 23:26:42.024518 17193 layer_factory.hpp:77] Creating layer label_data_1_split
I0118 23:26:42.024528 17193 net.cpp:106] Creating Layer label_data_1_split
I0118 23:26:42.024530 17193 net.cpp:454] label_data_1_split <- label
I0118 23:26:42.024534 17193 net.cpp:411] label_data_1_split -> label_data_1_split_0
I0118 23:26:42.024552 17193 net.cpp:411] label_data_1_split -> label_data_1_split_1
I0118 23:26:42.024598 17193 net.cpp:150] Setting up label_data_1_split
I0118 23:26:42.024613 17193 net.cpp:157] Top shape: 10 (10)
I0118 23:26:42.024616 17193 net.cpp:157] Top shape: 10 (10)
I0118 23:26:42.024617 17193 net.cpp:165] Memory required for data: 501880
I0118 23:26:42.024629 17193 layer_factory.hpp:77] Creating layer my_conv1
I0118 23:26:42.024637 17193 net.cpp:106] Creating Layer my_conv1
I0118 23:26:42.024641 17193 net.cpp:454] my_conv1 <- data
I0118 23:26:42.024657 17193 net.cpp:411] my_conv1 -> my_conv1
I0118 23:26:42.025676 17193 net.cpp:150] Setting up my_conv1
I0118 23:26:42.025686 17193 net.cpp:157] Top shape: 10 96 102 102 (9987840)
I0118 23:26:42.025689 17193 net.cpp:165] Memory required for data: 40453240
I0118 23:26:42.025697 17193 layer_factory.hpp:77] Creating layer relu1
I0118 23:26:42.025702 17193 net.cpp:106] Creating Layer relu1
I0118 23:26:42.025705 17193 net.cpp:454] relu1 <- my_conv1
I0118 23:26:42.025708 17193 net.cpp:397] relu1 -> my_conv1 (in-place)
I0118 23:26:42.025980 17193 net.cpp:150] Setting up relu1
I0118 23:26:42.025990 17193 net.cpp:157] Top shape: 10 96 102 102 (9987840)
I0118 23:26:42.025993 17193 net.cpp:165] Memory required for data: 80404600
I0118 23:26:42.025996 17193 layer_factory.hpp:77] Creating layer norm1
I0118 23:26:42.026002 17193 net.cpp:106] Creating Layer norm1
I0118 23:26:42.026006 17193 net.cpp:454] norm1 <- my_conv1
I0118 23:26:42.026010 17193 net.cpp:411] norm1 -> norm1
I0118 23:26:42.026201 17193 net.cpp:150] Setting up norm1
I0118 23:26:42.026209 17193 net.cpp:157] Top shape: 10 96 102 102 (9987840)
I0118 23:26:42.026221 17193 net.cpp:165] Memory required for data: 120355960
I0118 23:26:42.026223 17193 layer_factory.hpp:77] Creating layer pool1
I0118 23:26:42.026247 17193 net.cpp:106] Creating Layer pool1
I0118 23:26:42.026252 17193 net.cpp:454] pool1 <- norm1
I0118 23:26:42.026257 17193 net.cpp:411] pool1 -> pool1
I0118 23:26:42.026305 17193 net.cpp:150] Setting up pool1
I0118 23:26:42.026319 17193 net.cpp:157] Top shape: 10 96 51 51 (2496960)
I0118 23:26:42.026322 17193 net.cpp:165] Memory required for data: 130343800
I0118 23:26:42.026324 17193 layer_factory.hpp:77] Creating layer conv2
I0118 23:26:42.026341 17193 net.cpp:106] Creating Layer conv2
I0118 23:26:42.026345 17193 net.cpp:454] conv2 <- pool1
I0118 23:26:42.026348 17193 net.cpp:411] conv2 -> conv2
I0118 23:26:42.035828 17193 net.cpp:150] Setting up conv2
I0118 23:26:42.035841 17193 net.cpp:157] Top shape: 10 256 51 51 (6658560)
I0118 23:26:42.035845 17193 net.cpp:165] Memory required for data: 156978040
I0118 23:26:42.035853 17193 layer_factory.hpp:77] Creating layer relu2
I0118 23:26:42.035858 17193 net.cpp:106] Creating Layer relu2
I0118 23:26:42.035861 17193 net.cpp:454] relu2 <- conv2
I0118 23:26:42.035866 17193 net.cpp:397] relu2 -> conv2 (in-place)
I0118 23:26:42.036121 17193 net.cpp:150] Setting up relu2
I0118 23:26:42.036142 17193 net.cpp:157] Top shape: 10 256 51 51 (6658560)
I0118 23:26:42.036144 17193 net.cpp:165] Memory required for data: 183612280
I0118 23:26:42.036147 17193 layer_factory.hpp:77] Creating layer norm2
I0118 23:26:42.036155 17193 net.cpp:106] Creating Layer norm2
I0118 23:26:42.036170 17193 net.cpp:454] norm2 <- conv2
I0118 23:26:42.036190 17193 net.cpp:411] norm2 -> norm2
I0118 23:26:42.036404 17193 net.cpp:150] Setting up norm2
I0118 23:26:42.036412 17193 net.cpp:157] Top shape: 10 256 51 51 (6658560)
I0118 23:26:42.036425 17193 net.cpp:165] Memory required for data: 210246520
I0118 23:26:42.036427 17193 layer_factory.hpp:77] Creating layer pool2
I0118 23:26:42.036433 17193 net.cpp:106] Creating Layer pool2
I0118 23:26:42.036437 17193 net.cpp:454] pool2 <- norm2
I0118 23:26:42.036442 17193 net.cpp:411] pool2 -> pool2
I0118 23:26:42.036489 17193 net.cpp:150] Setting up pool2
I0118 23:26:42.036495 17193 net.cpp:157] Top shape: 10 256 25 25 (1600000)
I0118 23:26:42.036506 17193 net.cpp:165] Memory required for data: 216646520
I0118 23:26:42.036509 17193 layer_factory.hpp:77] Creating layer conv3
I0118 23:26:42.036525 17193 net.cpp:106] Creating Layer conv3
I0118 23:26:42.036528 17193 net.cpp:454] conv3 <- pool2
I0118 23:26:42.036533 17193 net.cpp:411] conv3 -> conv3
I0118 23:26:42.060816 17193 net.cpp:150] Setting up conv3
I0118 23:26:42.060837 17193 net.cpp:157] Top shape: 10 384 25 25 (2400000)
I0118 23:26:42.060840 17193 net.cpp:165] Memory required for data: 226246520
I0118 23:26:42.060850 17193 layer_factory.hpp:77] Creating layer relu3
I0118 23:26:42.060859 17193 net.cpp:106] Creating Layer relu3
I0118 23:26:42.060863 17193 net.cpp:454] relu3 <- conv3
I0118 23:26:42.060868 17193 net.cpp:397] relu3 -> conv3 (in-place)
I0118 23:26:42.061054 17193 net.cpp:150] Setting up relu3
I0118 23:26:42.061064 17193 net.cpp:157] Top shape: 10 384 25 25 (2400000)
I0118 23:26:42.061076 17193 net.cpp:165] Memory required for data: 235846520
I0118 23:26:42.061079 17193 layer_factory.hpp:77] Creating layer conv4
I0118 23:26:42.061089 17193 net.cpp:106] Creating Layer conv4
I0118 23:26:42.061092 17193 net.cpp:454] conv4 <- conv3
I0118 23:26:42.061098 17193 net.cpp:411] conv4 -> conv4
I0118 23:26:42.080008 17193 net.cpp:150] Setting up conv4
I0118 23:26:42.080024 17193 net.cpp:157] Top shape: 10 384 25 25 (2400000)
I0118 23:26:42.080027 17193 net.cpp:165] Memory required for data: 245446520
I0118 23:26:42.080034 17193 layer_factory.hpp:77] Creating layer relu4
I0118 23:26:42.080040 17193 net.cpp:106] Creating Layer relu4
I0118 23:26:42.080044 17193 net.cpp:454] relu4 <- conv4
I0118 23:26:42.080049 17193 net.cpp:397] relu4 -> conv4 (in-place)
I0118 23:26:42.080322 17193 net.cpp:150] Setting up relu4
I0118 23:26:42.080332 17193 net.cpp:157] Top shape: 10 384 25 25 (2400000)
I0118 23:26:42.080344 17193 net.cpp:165] Memory required for data: 255046520
I0118 23:26:42.080348 17193 layer_factory.hpp:77] Creating layer conv5
I0118 23:26:42.080358 17193 net.cpp:106] Creating Layer conv5
I0118 23:26:42.080360 17193 net.cpp:454] conv5 <- conv4
I0118 23:26:42.080368 17193 net.cpp:411] conv5 -> conv5
I0118 23:26:42.093437 17193 net.cpp:150] Setting up conv5
I0118 23:26:42.093456 17193 net.cpp:157] Top shape: 10 256 25 25 (1600000)
I0118 23:26:42.093458 17193 net.cpp:165] Memory required for data: 261446520
I0118 23:26:42.093468 17193 layer_factory.hpp:77] Creating layer relu5
I0118 23:26:42.093474 17193 net.cpp:106] Creating Layer relu5
I0118 23:26:42.093477 17193 net.cpp:454] relu5 <- conv5
I0118 23:26:42.093482 17193 net.cpp:397] relu5 -> conv5 (in-place)
I0118 23:26:42.093752 17193 net.cpp:150] Setting up relu5
I0118 23:26:42.093762 17193 net.cpp:157] Top shape: 10 256 25 25 (1600000)
I0118 23:26:42.093775 17193 net.cpp:165] Memory required for data: 267846520
I0118 23:26:42.093777 17193 layer_factory.hpp:77] Creating layer pool5
I0118 23:26:42.093786 17193 net.cpp:106] Creating Layer pool5
I0118 23:26:42.093788 17193 net.cpp:454] pool5 <- conv5
I0118 23:26:42.093794 17193 net.cpp:411] pool5 -> pool5
I0118 23:26:42.093868 17193 net.cpp:150] Setting up pool5
I0118 23:26:42.093883 17193 net.cpp:157] Top shape: 10 256 12 12 (368640)
I0118 23:26:42.093884 17193 net.cpp:165] Memory required for data: 269321080
I0118 23:26:42.093886 17193 layer_factory.hpp:77] Creating layer my_fc6
I0118 23:26:42.093919 17193 net.cpp:106] Creating Layer my_fc6
I0118 23:26:42.093921 17193 net.cpp:454] my_fc6 <- pool5
I0118 23:26:42.093926 17193 net.cpp:411] my_fc6 -> my_fc6
I0118 23:26:46.152444 17193 net.cpp:150] Setting up my_fc6
I0118 23:26:46.152470 17193 net.cpp:157] Top shape: 10 4096 (40960)
I0118 23:26:46.152473 17193 net.cpp:165] Memory required for data: 269484920
I0118 23:26:46.152482 17193 layer_factory.hpp:77] Creating layer relu6
I0118 23:26:46.152492 17193 net.cpp:106] Creating Layer relu6
I0118 23:26:46.152496 17193 net.cpp:454] relu6 <- my_fc6
I0118 23:26:46.152503 17193 net.cpp:397] relu6 -> my_fc6 (in-place)
I0118 23:26:46.152724 17193 net.cpp:150] Setting up relu6
I0118 23:26:46.152734 17193 net.cpp:157] Top shape: 10 4096 (40960)
I0118 23:26:46.152746 17193 net.cpp:165] Memory required for data: 269648760
I0118 23:26:46.152750 17193 layer_factory.hpp:77] Creating layer drop6
I0118 23:26:46.152755 17193 net.cpp:106] Creating Layer drop6
I0118 23:26:46.152760 17193 net.cpp:454] drop6 <- my_fc6
I0118 23:26:46.152763 17193 net.cpp:397] drop6 -> my_fc6 (in-place)
I0118 23:26:46.152796 17193 net.cpp:150] Setting up drop6
I0118 23:26:46.152801 17193 net.cpp:157] Top shape: 10 4096 (40960)
I0118 23:26:46.152804 17193 net.cpp:165] Memory required for data: 269812600
I0118 23:26:46.152807 17193 layer_factory.hpp:77] Creating layer fc7
I0118 23:26:46.152814 17193 net.cpp:106] Creating Layer fc7
I0118 23:26:46.152818 17193 net.cpp:454] fc7 <- my_fc6
I0118 23:26:46.152822 17193 net.cpp:411] fc7 -> fc7
I0118 23:26:46.603081 17193 net.cpp:150] Setting up fc7
I0118 23:26:46.603102 17193 net.cpp:157] Top shape: 10 4096 (40960)
I0118 23:26:46.603106 17193 net.cpp:165] Memory required for data: 269976440
I0118 23:26:46.603114 17193 layer_factory.hpp:77] Creating layer relu7
I0118 23:26:46.603124 17193 net.cpp:106] Creating Layer relu7
I0118 23:26:46.603128 17193 net.cpp:454] relu7 <- fc7
I0118 23:26:46.603135 17193 net.cpp:397] relu7 -> fc7 (in-place)
I0118 23:26:46.603554 17193 net.cpp:150] Setting up relu7
I0118 23:26:46.603575 17193 net.cpp:157] Top shape: 10 4096 (40960)
I0118 23:26:46.603577 17193 net.cpp:165] Memory required for data: 270140280
I0118 23:26:46.603581 17193 layer_factory.hpp:77] Creating layer drop7
I0118 23:26:46.603600 17193 net.cpp:106] Creating Layer drop7
I0118 23:26:46.603603 17193 net.cpp:454] drop7 <- fc7
I0118 23:26:46.603637 17193 net.cpp:397] drop7 -> fc7 (in-place)
I0118 23:26:46.603710 17193 net.cpp:150] Setting up drop7
I0118 23:26:46.603718 17193 net.cpp:157] Top shape: 10 4096 (40960)
I0118 23:26:46.603720 17193 net.cpp:165] Memory required for data: 270304120
I0118 23:26:46.603723 17193 layer_factory.hpp:77] Creating layer my_fc8
I0118 23:26:46.603729 17193 net.cpp:106] Creating Layer my_fc8
I0118 23:26:46.603734 17193 net.cpp:454] my_fc8 <- fc7
I0118 23:26:46.603739 17193 net.cpp:411] my_fc8 -> my_fc8
I0118 23:26:46.604399 17193 net.cpp:150] Setting up my_fc8
I0118 23:26:46.604406 17193 net.cpp:157] Top shape: 10 5 (50)
I0118 23:26:46.604409 17193 net.cpp:165] Memory required for data: 270304320
I0118 23:26:46.604413 17193 layer_factory.hpp:77] Creating layer my_fc8_my_fc8_0_split
I0118 23:26:46.604418 17193 net.cpp:106] Creating Layer my_fc8_my_fc8_0_split
I0118 23:26:46.604421 17193 net.cpp:454] my_fc8_my_fc8_0_split <- my_fc8
I0118 23:26:46.604425 17193 net.cpp:411] my_fc8_my_fc8_0_split -> my_fc8_my_fc8_0_split_0
I0118 23:26:46.604430 17193 net.cpp:411] my_fc8_my_fc8_0_split -> my_fc8_my_fc8_0_split_1
I0118 23:26:46.604491 17193 net.cpp:150] Setting up my_fc8_my_fc8_0_split
I0118 23:26:46.604496 17193 net.cpp:157] Top shape: 10 5 (50)
I0118 23:26:46.604501 17193 net.cpp:157] Top shape: 10 5 (50)
I0118 23:26:46.604502 17193 net.cpp:165] Memory required for data: 270304720
I0118 23:26:46.604504 17193 layer_factory.hpp:77] Creating layer accuracy
I0118 23:26:46.604513 17193 net.cpp:106] Creating Layer accuracy
I0118 23:26:46.604517 17193 net.cpp:454] accuracy <- my_fc8_my_fc8_0_split_0
I0118 23:26:46.604521 17193 net.cpp:454] accuracy <- label_data_1_split_0
I0118 23:26:46.604524 17193 net.cpp:411] accuracy -> accuracy
…
