…
I0120 10:16:08.666635 26222 net.cpp:322] The NetState phase (0) differed from the phase (1) specified by a rule in layer data
I0120 10:16:08.666674 26222 net.cpp:322] The NetState phase (0) differed from the phase (1) specified by a rule in layer accuracy
I0120 10:16:08.666853 26222 net.cpp:49] Initializing net from parameters: 
name: "AlexNet"
state {
  phase: TRAIN
}
layer {
  name: "data"
  type: "HDF5Data"
  top: "data"
  top: "label"
  include {
    phase: TRAIN
  }
  hdf5_data_param {
    source: "data/train_loc.txt"
    batch_size: 10
  }
}
layer {
  name: "my_conv1"
  type: "Convolution"
  bottom: "data"
  top: "my_conv1"
  param {
    lr_mult: 1
    decay_mult: 1
  }
  param {
    lr_mult: 2
    decay_mult: 0
  }
  convolution_param {
    num_output: 96
    kernel_size: 11
    stride: 1
    weight_filler {
      type: "gaussian"
      std: 0.01
    }
    bias_filler {
      type: "constant"
      value: 0
    }
  }
}
layer {
  name: "relu1"
  type: "ReLU"
  bottom: "my_conv1"
  top: "my_conv1"
}
layer {
  name: "norm1"
  type: "LRN"
  bottom: "my_conv1"
  top: "norm1"
  lrn_param {
    local_size: 5
    alpha: 0.0001
    beta: 0.75
  }
}
layer {
  name: "pool1"
  type: "Pooling"
  bottom: "norm1"
  top: "pool1"
  pooling_param {
    pool: MAX
    kernel_size: 3
    stride: 2
  }
}
layer {
  name: "conv2"
  type: "Convolution"
  bottom: "pool1"
  top: "conv2"
  param {
    lr_mult: 1
    decay_mult: 1
  }
  param {
    lr_mult: 2
    decay_mult: 0
  }
  convolution_param {
    num_output: 256
    pad: 2
    kernel_size: 5
    group: 2
    weight_filler {
      type: "gaussian"
      std: 0.01
    }
    bias_filler {
      type: "constant"
      value: 0.1
    }
  }
}
layer {
  name: "relu2"
  type: "ReLU"
  bottom: "conv2"
  top: "conv2"
}
layer {
  name: "norm2"
  type: "LRN"
  bottom: "conv2"
  top: "norm2"
  lrn_param {
    local_size: 5
    alpha: 0.0001
    beta: 0.75
  }
}
layer {
  name: "pool2"
  type: "Pooling"
  bottom: "norm2"
  top: "pool2"
  pooling_param {
    pool: MAX
    kernel_size: 3
    stride: 2
  }
}
layer {
  name: "conv3"
  type: "Convolution"
  bottom: "pool2"
  top: "conv3"
  param {
    lr_mult: 1
    decay_mult: 1
  }
  param {
    lr_mult: 2
    decay_mult: 0
  }
  convolution_param {
    num_output: 384
    pad: 1
    kernel_size: 3
    weight_filler {
      type: "gaussian"
      std: 0.01
    }
    bias_filler {
      type: "constant"
      value: 0
    }
  }
}
layer {
  name: "relu3"
  type: "ReLU"
  bottom: "conv3"
  top: "conv3"
}
layer {
  name: "conv4"
  type: "Convolution"
  bottom: "conv3"
  top: "conv4"
  param {
    lr_mult: 1
    decay_mult: 1
  }
  param {
    lr_mult: 2
    decay_mult: 0
  }
  convolution_param {
    num_output: 384
    pad: 1
    kernel_size: 3
    group: 2
    weight_filler {
      type: "gaussian"
      std: 0.01
    }
    bias_filler {
      type: "constant"
      value: 0.1
    }
  }
}
layer {
  name: "relu4"
  type: "ReLU"
  bottom: "conv4"
  top: "conv4"
}
layer {
  name: "conv5"
  type: "Convolution"
  bottom: "conv4"
  top: "conv5"
  param {
    lr_mult: 1
    decay_mult: 1
  }
  param {
    lr_mult: 2
    decay_mult: 0
  }
  convolution_param {
    num_output: 256
    pad: 1
    kernel_size: 3
    group: 2
    weight_filler {
      type: "gaussian"
      std: 0.01
    }
    bias_filler {
      type: "constant"
      value: 0.1
    }
  }
}
layer {
  name: "relu5"
  type: "ReLU"
  bottom: "conv5"
  top: "conv5"
}
layer {
  name: "pool5"
  type: "Pooling"
  bottom: "conv5"
  top: "pool5"
  pooling_param {
    pool: MAX
    kernel_size: 3
    stride: 2
  }
}
layer {
  name: "my_fc6"
  type: "InnerProduct"
  bottom: "pool5"
  top: "my_fc6"
  param {
    lr_mult: 1
    decay_mult: 1
  }
  param {
    lr_mult: 2
    decay_mult: 0
  }
  inner_product_param {
    num_output: 4096
    weight_filler {
      type: "gaussian"
      std: 0.005
    }
    bias_filler {
      type: "constant"
      value: 0.1
    }
  }
}
layer {
  name: "relu6"
  type: "ReLU"
  bottom: "my_fc6"
  top: "my_fc6"
}
layer {
  name: "drop6"
  type: "Dropout"
  bottom: "my_fc6"
  top: "my_fc6"
  dropout_param {
    dropout_ratio: 0.5
  }
}
layer {
  name: "fc7"
  type: "InnerProduct"
  bottom: "my_fc6"
  top: "fc7"
  param {
    lr_mult: 1
    decay_mult: 1
  }
  param {
    lr_mult: 2
    decay_mult: 0
  }
  inner_product_param {
    num_output: 4096
    weight_filler {
      type: "gaussian"
      std: 0.005
    }
    bias_filler {
      type: "constant"
      value: 0.1
    }
  }
}
layer {
  name: "relu7"
  type: "ReLU"
  bottom: "fc7"
  top: "fc7"
}
layer {
  name: "drop7"
  type: "Dropout"
  bottom: "fc7"
  top: "fc7"
  dropout_param {
    dropout_ratio: 0.5
  }
}
layer {
  name: "my_fc8"
  type: "InnerProduct"
  bottom: "fc7"
  top: "my_fc8"
  param {
    lr_mult: 1
    decay_mult: 1
  }
  param {
    lr_mult: 2
    decay_mult: 0
  }
  inner_product_param {
    num_output: 5
    weight_filler {
      type: "gaussian"
      std: 0.01
    }
    bias_filler {
      type: "constant"
      value: 0
    }
  }
}
layer {
  name: "loss"
  type: "SoftmaxWithLoss"
  bottom: "my_fc8"
  bottom: "label"
  top: "loss"
}
I0120 10:16:08.666967 26222 layer_factory.hpp:77] Creating layer data
I0120 10:16:08.666996 26222 net.cpp:106] Creating Layer data
I0120 10:16:08.667012 26222 net.cpp:411] data -> data
I0120 10:16:08.667067 26222 net.cpp:411] data -> label
I0120 10:16:08.667091 26222 hdf5_data_layer.cpp:79] Loading list of HDF5 filenames from: data/train_loc.txt
I0120 10:16:08.667762 26222 hdf5_data_layer.cpp:93] Number of HDF5 files: 2914
I0120 10:16:08.668582 26222 hdf5.cpp:32] Datatype class: H5T_FLOAT
I0120 10:16:09.572615 26222 hdf5.cpp:35] Datatype class: H5T_INTEGER
I0120 10:16:09.572842 26222 net.cpp:150] Setting up data
I0120 10:16:09.572872 26222 net.cpp:157] Top shape: 10 1 112 112 (125440)
I0120 10:16:09.572877 26222 net.cpp:157] Top shape: 10 (10)
I0120 10:16:09.572880 26222 net.cpp:165] Memory required for data: 501800
I0120 10:16:09.572886 26222 layer_factory.hpp:77] Creating layer my_conv1
I0120 10:16:09.572933 26222 net.cpp:106] Creating Layer my_conv1
I0120 10:16:09.572940 26222 net.cpp:454] my_conv1 <- data
I0120 10:16:09.572962 26222 net.cpp:411] my_conv1 -> my_conv1
I0120 10:16:10.470212 26222 net.cpp:150] Setting up my_conv1
I0120 10:16:10.470266 26222 net.cpp:157] Top shape: 10 96 102 102 (9987840)
I0120 10:16:10.470271 26222 net.cpp:165] Memory required for data: 40453160
I0120 10:16:10.470301 26222 layer_factory.hpp:77] Creating layer relu1
I0120 10:16:10.470331 26222 net.cpp:106] Creating Layer relu1
I0120 10:16:10.470335 26222 net.cpp:454] relu1 <- my_conv1
I0120 10:16:10.470340 26222 net.cpp:397] relu1 -> my_conv1 (in-place)
I0120 10:16:10.470480 26222 net.cpp:150] Setting up relu1
I0120 10:16:10.470489 26222 net.cpp:157] Top shape: 10 96 102 102 (9987840)
I0120 10:16:10.470501 26222 net.cpp:165] Memory required for data: 80404520
I0120 10:16:10.470504 26222 layer_factory.hpp:77] Creating layer norm1
I0120 10:16:10.470515 26222 net.cpp:106] Creating Layer norm1
I0120 10:16:10.470518 26222 net.cpp:454] norm1 <- my_conv1
I0120 10:16:10.470525 26222 net.cpp:411] norm1 -> norm1
I0120 10:16:10.470793 26222 net.cpp:150] Setting up norm1
I0120 10:16:10.470803 26222 net.cpp:157] Top shape: 10 96 102 102 (9987840)
I0120 10:16:10.470815 26222 net.cpp:165] Memory required for data: 120355880
I0120 10:16:10.470818 26222 layer_factory.hpp:77] Creating layer pool1
I0120 10:16:10.470827 26222 net.cpp:106] Creating Layer pool1
I0120 10:16:10.470830 26222 net.cpp:454] pool1 <- norm1
I0120 10:16:10.470834 26222 net.cpp:411] pool1 -> pool1
I0120 10:16:10.470890 26222 net.cpp:150] Setting up pool1
I0120 10:16:10.470918 26222 net.cpp:157] Top shape: 10 96 51 51 (2496960)
I0120 10:16:10.470932 26222 net.cpp:165] Memory required for data: 130343720
I0120 10:16:10.470933 26222 layer_factory.hpp:77] Creating layer conv2
I0120 10:16:10.470943 26222 net.cpp:106] Creating Layer conv2
I0120 10:16:10.470947 26222 net.cpp:454] conv2 <- pool1
I0120 10:16:10.470950 26222 net.cpp:411] conv2 -> conv2
I0120 10:16:10.480471 26222 net.cpp:150] Setting up conv2
I0120 10:16:10.480497 26222 net.cpp:157] Top shape: 10 256 51 51 (6658560)
I0120 10:16:10.480500 26222 net.cpp:165] Memory required for data: 156977960
I0120 10:16:10.480522 26222 layer_factory.hpp:77] Creating layer relu2
I0120 10:16:10.480537 26222 net.cpp:106] Creating Layer relu2
I0120 10:16:10.480541 26222 net.cpp:454] relu2 <- conv2
I0120 10:16:10.480545 26222 net.cpp:397] relu2 -> conv2 (in-place)
I0120 10:16:10.480810 26222 net.cpp:150] Setting up relu2
I0120 10:16:10.480819 26222 net.cpp:157] Top shape: 10 256 51 51 (6658560)
I0120 10:16:10.480823 26222 net.cpp:165] Memory required for data: 183612200
I0120 10:16:10.480825 26222 layer_factory.hpp:77] Creating layer norm2
I0120 10:16:10.480831 26222 net.cpp:106] Creating Layer norm2
I0120 10:16:10.480834 26222 net.cpp:454] norm2 <- conv2
I0120 10:16:10.480839 26222 net.cpp:411] norm2 -> norm2
I0120 10:16:10.481009 26222 net.cpp:150] Setting up norm2
I0120 10:16:10.481017 26222 net.cpp:157] Top shape: 10 256 51 51 (6658560)
I0120 10:16:10.481035 26222 net.cpp:165] Memory required for data: 210246440
I0120 10:16:10.481039 26222 layer_factory.hpp:77] Creating layer pool2
I0120 10:16:10.481055 26222 net.cpp:106] Creating Layer pool2
I0120 10:16:10.481056 26222 net.cpp:454] pool2 <- norm2
I0120 10:16:10.481060 26222 net.cpp:411] pool2 -> pool2
I0120 10:16:10.481109 26222 net.cpp:150] Setting up pool2
I0120 10:16:10.481114 26222 net.cpp:157] Top shape: 10 256 25 25 (1600000)
I0120 10:16:10.481117 26222 net.cpp:165] Memory required for data: 216646440
I0120 10:16:10.481119 26222 layer_factory.hpp:77] Creating layer conv3
I0120 10:16:10.481128 26222 net.cpp:106] Creating Layer conv3
I0120 10:16:10.481132 26222 net.cpp:454] conv3 <- pool2
I0120 10:16:10.481137 26222 net.cpp:411] conv3 -> conv3
I0120 10:16:10.505653 26222 net.cpp:150] Setting up conv3
I0120 10:16:10.505674 26222 net.cpp:157] Top shape: 10 384 25 25 (2400000)
I0120 10:16:10.505678 26222 net.cpp:165] Memory required for data: 226246440
I0120 10:16:10.505689 26222 layer_factory.hpp:77] Creating layer relu3
I0120 10:16:10.505697 26222 net.cpp:106] Creating Layer relu3
I0120 10:16:10.505702 26222 net.cpp:454] relu3 <- conv3
I0120 10:16:10.505707 26222 net.cpp:397] relu3 -> conv3 (in-place)
I0120 10:16:10.505973 26222 net.cpp:150] Setting up relu3
I0120 10:16:10.505982 26222 net.cpp:157] Top shape: 10 384 25 25 (2400000)
I0120 10:16:10.505985 26222 net.cpp:165] Memory required for data: 235846440
I0120 10:16:10.505987 26222 layer_factory.hpp:77] Creating layer conv4
I0120 10:16:10.505997 26222 net.cpp:106] Creating Layer conv4
I0120 10:16:10.506000 26222 net.cpp:454] conv4 <- conv3
I0120 10:16:10.506006 26222 net.cpp:411] conv4 -> conv4
I0120 10:16:10.524670 26222 net.cpp:150] Setting up conv4
I0120 10:16:10.524688 26222 net.cpp:157] Top shape: 10 384 25 25 (2400000)
I0120 10:16:10.524690 26222 net.cpp:165] Memory required for data: 245446440
I0120 10:16:10.524696 26222 layer_factory.hpp:77] Creating layer relu4
I0120 10:16:10.524704 26222 net.cpp:106] Creating Layer relu4
I0120 10:16:10.524708 26222 net.cpp:454] relu4 <- conv4
I0120 10:16:10.524713 26222 net.cpp:397] relu4 -> conv4 (in-place)
I0120 10:16:10.524960 26222 net.cpp:150] Setting up relu4
I0120 10:16:10.524969 26222 net.cpp:157] Top shape: 10 384 25 25 (2400000)
I0120 10:16:10.524972 26222 net.cpp:165] Memory required for data: 255046440
I0120 10:16:10.524974 26222 layer_factory.hpp:77] Creating layer conv5
I0120 10:16:10.524984 26222 net.cpp:106] Creating Layer conv5
I0120 10:16:10.524987 26222 net.cpp:454] conv5 <- conv4
I0120 10:16:10.524993 26222 net.cpp:411] conv5 -> conv5
I0120 10:16:10.537947 26222 net.cpp:150] Setting up conv5
I0120 10:16:10.537961 26222 net.cpp:157] Top shape: 10 256 25 25 (1600000)
I0120 10:16:10.537964 26222 net.cpp:165] Memory required for data: 261446440
I0120 10:16:10.537974 26222 layer_factory.hpp:77] Creating layer relu5
I0120 10:16:10.537981 26222 net.cpp:106] Creating Layer relu5
I0120 10:16:10.537983 26222 net.cpp:454] relu5 <- conv5
I0120 10:16:10.537991 26222 net.cpp:397] relu5 -> conv5 (in-place)
I0120 10:16:10.538261 26222 net.cpp:150] Setting up relu5
I0120 10:16:10.538270 26222 net.cpp:157] Top shape: 10 256 25 25 (1600000)
I0120 10:16:10.538274 26222 net.cpp:165] Memory required for data: 267846440
I0120 10:16:10.538276 26222 layer_factory.hpp:77] Creating layer pool5
I0120 10:16:10.538282 26222 net.cpp:106] Creating Layer pool5
I0120 10:16:10.538285 26222 net.cpp:454] pool5 <- conv5
I0120 10:16:10.538290 26222 net.cpp:411] pool5 -> pool5
I0120 10:16:10.538342 26222 net.cpp:150] Setting up pool5
I0120 10:16:10.538347 26222 net.cpp:157] Top shape: 10 256 12 12 (368640)
I0120 10:16:10.538360 26222 net.cpp:165] Memory required for data: 269321000
I0120 10:16:10.538362 26222 layer_factory.hpp:77] Creating layer my_fc6
I0120 10:16:10.538377 26222 net.cpp:106] Creating Layer my_fc6
I0120 10:16:10.538380 26222 net.cpp:454] my_fc6 <- pool5
I0120 10:16:10.538384 26222 net.cpp:411] my_fc6 -> my_fc6
I0120 10:16:14.506294 26222 net.cpp:150] Setting up my_fc6
I0120 10:16:14.506316 26222 net.cpp:157] Top shape: 10 4096 (40960)
I0120 10:16:14.506320 26222 net.cpp:165] Memory required for data: 269484840
I0120 10:16:14.506330 26222 layer_factory.hpp:77] Creating layer relu6
I0120 10:16:14.506338 26222 net.cpp:106] Creating Layer relu6
I0120 10:16:14.506343 26222 net.cpp:454] relu6 <- my_fc6
I0120 10:16:14.506352 26222 net.cpp:397] relu6 -> my_fc6 (in-place)
I0120 10:16:14.506593 26222 net.cpp:150] Setting up relu6
I0120 10:16:14.506603 26222 net.cpp:157] Top shape: 10 4096 (40960)
I0120 10:16:14.506615 26222 net.cpp:165] Memory required for data: 269648680
I0120 10:16:14.506618 26222 layer_factory.hpp:77] Creating layer drop6
I0120 10:16:14.506628 26222 net.cpp:106] Creating Layer drop6
I0120 10:16:14.506631 26222 net.cpp:454] drop6 <- my_fc6
I0120 10:16:14.506639 26222 net.cpp:397] drop6 -> my_fc6 (in-place)
I0120 10:16:14.506688 26222 net.cpp:150] Setting up drop6
I0120 10:16:14.506702 26222 net.cpp:157] Top shape: 10 4096 (40960)
I0120 10:16:14.506705 26222 net.cpp:165] Memory required for data: 269812520
I0120 10:16:14.506707 26222 layer_factory.hpp:77] Creating layer fc7
I0120 10:16:14.506724 26222 net.cpp:106] Creating Layer fc7
I0120 10:16:14.506727 26222 net.cpp:454] fc7 <- my_fc6
I0120 10:16:14.506732 26222 net.cpp:411] fc7 -> fc7
I0120 10:16:14.946540 26222 net.cpp:150] Setting up fc7
I0120 10:16:14.946568 26222 net.cpp:157] Top shape: 10 4096 (40960)
I0120 10:16:14.946571 26222 net.cpp:165] Memory required for data: 269976360
I0120 10:16:14.946579 26222 layer_factory.hpp:77] Creating layer relu7
I0120 10:16:14.946589 26222 net.cpp:106] Creating Layer relu7
I0120 10:16:14.946593 26222 net.cpp:454] relu7 <- fc7
I0120 10:16:14.946602 26222 net.cpp:397] relu7 -> fc7 (in-place)
I0120 10:16:14.946995 26222 net.cpp:150] Setting up relu7
I0120 10:16:14.947006 26222 net.cpp:157] Top shape: 10 4096 (40960)
I0120 10:16:14.947010 26222 net.cpp:165] Memory required for data: 270140200
I0120 10:16:14.947012 26222 layer_factory.hpp:77] Creating layer drop7
I0120 10:16:14.947018 26222 net.cpp:106] Creating Layer drop7
I0120 10:16:14.947021 26222 net.cpp:454] drop7 <- fc7
I0120 10:16:14.947029 26222 net.cpp:397] drop7 -> fc7 (in-place)
I0120 10:16:14.947078 26222 net.cpp:150] Setting up drop7
I0120 10:16:14.947083 26222 net.cpp:157] Top shape: 10 4096 (40960)
I0120 10:16:14.947085 26222 net.cpp:165] Memory required for data: 270304040
I0120 10:16:14.947088 26222 layer_factory.hpp:77] Creating layer my_fc8
I0120 10:16:14.947096 26222 net.cpp:106] Creating Layer my_fc8
I0120 10:16:14.947099 26222 net.cpp:454] my_fc8 <- fc7
I0120 10:16:14.947119 26222 net.cpp:411] my_fc8 -> my_fc8
I0120 10:16:14.948175 26222 net.cpp:150] Setting up my_fc8
I0120 10:16:14.948186 26222 net.cpp:157] Top shape: 10 5 (50)
I0120 10:16:14.948189 26222 net.cpp:165] Memory required for data: 270304240
I0120 10:16:14.948194 26222 layer_factory.hpp:77] Creating layer loss
I0120 10:16:14.948202 26222 net.cpp:106] Creating Layer loss
I0120 10:16:14.948205 26222 net.cpp:454] loss <- my_fc8
I0120 10:16:14.948210 26222 net.cpp:454] loss <- label
I0120 10:16:14.948227 26222 net.cpp:411] loss -> loss
I0120 10:16:14.948251 26222 layer_factory.hpp:77] Creating layer loss
…
I0120 10:16:14.948796 26222 net.cpp:283] Network initialization done.
I0120 10:16:14.949288 26222 solver.cpp:181] Creating test net (#0) specified by net file: models/alexnet/train_val.prototxt
I0120 10:16:14.949347 26222 net.cpp:322] The NetState phase (1) differed from the phase (0) specified by a rule in layer data
I0120 10:16:14.949522 26222 net.cpp:49] Initializing net from parameters: 
name: "AlexNet"
state {
  phase: TEST
}
layer {
  name: "data"
  type: "HDF5Data"
  top: "data"
  top: "label"
  include {
    phase: TEST
  }
  hdf5_data_param {
    source: "data/test_loc.txt"
    batch_size: 10
  }
}
layer {
  name: "my_conv1"
  type: "Convolution"
  bottom: "data"
  top: "my_conv1"
  param {
    lr_mult: 1
    decay_mult: 1
  }
  param {
    lr_mult: 2
    decay_mult: 0
  }
  convolution_param {
    num_output: 96
    kernel_size: 11
    stride: 1
    weight_filler {
      type: "gaussian"
      std: 0.01
    }
    bias_filler {
      type: "constant"
      value: 0
    }
  }
}
layer {
  name: "relu1"
  type: "ReLU"
  bottom: "my_conv1"
  top: "my_conv1"
}
layer {
  name: "norm1"
  type: "LRN"
  bottom: "my_conv1"
  top: "norm1"
  lrn_param {
    local_size: 5
    alpha: 0.0001
    beta: 0.75
  }
}
layer {
  name: "pool1"
  type: "Pooling"
  bottom: "norm1"
  top: "pool1"
  pooling_param {
    pool: MAX
    kernel_size: 3
    stride: 2
  }
}
layer {
  name: "conv2"
  type: "Convolution"
  bottom: "pool1"
  top: "conv2"
  param {
    lr_mult: 1
    decay_mult: 1
  }
  param {
    lr_mult: 2
    decay_mult: 0
  }
  convolution_param {
    num_output: 256
    pad: 2
    kernel_size: 5
    group: 2
    weight_filler {
      type: "gaussian"
      std: 0.01
    }
    bias_filler {
      type: "constant"
      value: 0.1
    }
  }
}
layer {
  name: "relu2"
  type: "ReLU"
  bottom: "conv2"
  top: "conv2"
}
layer {
  name: "norm2"
  type: "LRN"
  bottom: "conv2"
  top: "norm2"
  lrn_param {
    local_size: 5
    alpha: 0.0001
    beta: 0.75
  }
}
layer {
  name: "pool2"
  type: "Pooling"
  bottom: "norm2"
  top: "pool2"
  pooling_param {
    pool: MAX
    kernel_size: 3
    stride: 2
  }
}
layer {
  name: "conv3"
  type: "Convolution"
  bottom: "pool2"
  top: "conv3"
  param {
    lr_mult: 1
    decay_mult: 1
  }
  param {
    lr_mult: 2
    decay_mult: 0
  }
  convolution_param {
    num_output: 384
    pad: 1
    kernel_size: 3
    weight_filler {
      type: "gaussian"
      std: 0.01
    }
    bias_filler {
      type: "constant"
      value: 0
    }
  }
}
layer {
  name: "relu3"
  type: "ReLU"
  bottom: "conv3"
  top: "conv3"
}
layer {
  name: "conv4"
  type: "Convolution"
  bottom: "conv3"
  top: "conv4"
  param {
    lr_mult: 1
    decay_mult: 1
  }
  param {
    lr_mult: 2
    decay_mult: 0
  }
  convolution_param {
    num_output: 384
    pad: 1
    kernel_size: 3
    group: 2
    weight_filler {
      type: "gaussian"
      std: 0.01
    }
    bias_filler {
      type: "constant"
      value: 0.1
    }
  }
}
layer {
  name: "relu4"
  type: "ReLU"
  bottom: "conv4"
  top: "conv4"
}
layer {
  name: "conv5"
  type: "Convolution"
  bottom: "conv4"
  top: "conv5"
  param {
    lr_mult: 1
    decay_mult: 1
  }
  param {
    lr_mult: 2
    decay_mult: 0
  }
  convolution_param {
    num_output: 256
    pad: 1
    kernel_size: 3
    group: 2
    weight_filler {
      type: "gaussian"
      std: 0.01
    }
    bias_filler {
      type: "constant"
      value: 0.1
    }
  }
}
layer {
  name: "relu5"
  type: "ReLU"
  bottom: "conv5"
  top: "conv5"
}
layer {
  name: "pool5"
  type: "Pooling"
  bottom: "conv5"
  top: "pool5"
  pooling_param {
    pool: MAX
    kernel_size: 3
    stride: 2
  }
}
layer {
  name: "my_fc6"
  type: "InnerProduct"
  bottom: "pool5"
  top: "my_fc6"
  param {
    lr_mult: 1
    decay_mult: 1
  }
  param {
    lr_mult: 2
    decay_mult: 0
  }
  inner_product_param {
    num_output: 4096
    weight_filler {
      type: "gaussian"
      std: 0.005
    }
    bias_filler {
      type: "constant"
      value: 0.1
    }
  }
}
layer {
  name: "relu6"
  type: "ReLU"
  bottom: "my_fc6"
  top: "my_fc6"
}
layer {
  name: "drop6"
  type: "Dropout"
  bottom: "my_fc6"
  top: "my_fc6"
  dropout_param {
    dropout_ratio: 0.5
  }
}
layer {
  name: "fc7"
  type: "InnerProduct"
  bottom: "my_fc6"
  top: "fc7"
  param {
    lr_mult: 1
    decay_mult: 1
  }
  param {
    lr_mult: 2
    decay_mult: 0
  }
  inner_product_param {
    num_output: 4096
    weight_filler {
      type: "gaussian"
      std: 0.005
    }
    bias_filler {
      type: "constant"
      value: 0.1
    }
  }
}
layer {
  name: "relu7"
  type: "ReLU"
  bottom: "fc7"
  top: "fc7"
}
layer {
  name: "drop7"
  type: "Dropout"
  bottom: "fc7"
  top: "fc7"
  dropout_param {
    dropout_ratio: 0.5
  }
}
layer {
  name: "my_fc8"
  type: "InnerProduct"
  bottom: "fc7"
  top: "my_fc8"
  param {
    lr_mult: 1
    decay_mult: 1
  }
  param {
    lr_mult: 2
    decay_mult: 0
  }
  inner_product_param {
    num_output: 5
    weight_filler {
      type: "gaussian"
      std: 0.01
    }
    bias_filler {
      type: "constant"
      value: 0
    }
  }
}
layer {
  name: "accuracy"
  type: "Accuracy"
  bottom: "my_fc8"
  bottom: "label"
  top: "accuracy"
  include {
    phase: TEST
  }
}
layer {
  name: "loss"
  type: "SoftmaxWithLoss"
  bottom: "my_fc8"
  bottom: "label"
  top: "loss"
}
I0120 10:16:14.949620 26222 layer_factory.hpp:77] Creating layer data
I0120 10:16:14.949627 26222 net.cpp:106] Creating Layer data
I0120 10:16:14.949631 26222 net.cpp:411] data -> data
I0120 10:16:14.949656 26222 net.cpp:411] data -> label
I0120 10:16:14.949671 26222 hdf5_data_layer.cpp:79] Loading list of HDF5 filenames from: data/test_loc.txt
I0120 10:16:14.950963 26222 hdf5_data_layer.cpp:93] Number of HDF5 files: 2914
I0120 10:16:14.951455 26222 net.cpp:150] Setting up data
I0120 10:16:14.951467 26222 net.cpp:157] Top shape: 10 1 112 112 (125440)
I0120 10:16:14.951470 26222 net.cpp:157] Top shape: 10 (10)
I0120 10:16:14.951472 26222 net.cpp:165] Memory required for data: 501800
I0120 10:16:14.951475 26222 layer_factory.hpp:77] Creating layer label_data_1_split
I0120 10:16:14.951485 26222 net.cpp:106] Creating Layer label_data_1_split
I0120 10:16:14.951488 26222 net.cpp:454] label_data_1_split <- label
I0120 10:16:14.951493 26222 net.cpp:411] label_data_1_split -> label_data_1_split_0
I0120 10:16:14.951501 26222 net.cpp:411] label_data_1_split -> label_data_1_split_1
I0120 10:16:14.951529 26222 net.cpp:150] Setting up label_data_1_split
I0120 10:16:14.951535 26222 net.cpp:157] Top shape: 10 (10)
I0120 10:16:14.951539 26222 net.cpp:157] Top shape: 10 (10)
I0120 10:16:14.951540 26222 net.cpp:165] Memory required for data: 501880
I0120 10:16:14.951544 26222 layer_factory.hpp:77] Creating layer my_conv1
I0120 10:16:14.951551 26222 net.cpp:106] Creating Layer my_conv1
I0120 10:16:14.951555 26222 net.cpp:454] my_conv1 <- data
I0120 10:16:14.951558 26222 net.cpp:411] my_conv1 -> my_conv1
I0120 10:16:14.952636 26222 net.cpp:150] Setting up my_conv1
I0120 10:16:14.952646 26222 net.cpp:157] Top shape: 10 96 102 102 (9987840)
I0120 10:16:14.952649 26222 net.cpp:165] Memory required for data: 40453240
I0120 10:16:14.952658 26222 layer_factory.hpp:77] Creating layer relu1
I0120 10:16:14.952664 26222 net.cpp:106] Creating Layer relu1
I0120 10:16:14.952667 26222 net.cpp:454] relu1 <- my_conv1
I0120 10:16:14.952671 26222 net.cpp:397] relu1 -> my_conv1 (in-place)
I0120 10:16:14.952891 26222 net.cpp:150] Setting up relu1
I0120 10:16:14.952901 26222 net.cpp:157] Top shape: 10 96 102 102 (9987840)
I0120 10:16:14.952903 26222 net.cpp:165] Memory required for data: 80404600
I0120 10:16:14.952906 26222 layer_factory.hpp:77] Creating layer norm1
I0120 10:16:14.952913 26222 net.cpp:106] Creating Layer norm1
I0120 10:16:14.952916 26222 net.cpp:454] norm1 <- my_conv1
I0120 10:16:14.952920 26222 net.cpp:411] norm1 -> norm1
I0120 10:16:14.953068 26222 net.cpp:150] Setting up norm1
I0120 10:16:14.953076 26222 net.cpp:157] Top shape: 10 96 102 102 (9987840)
I0120 10:16:14.953078 26222 net.cpp:165] Memory required for data: 120355960
I0120 10:16:14.953080 26222 layer_factory.hpp:77] Creating layer pool1
I0120 10:16:14.953085 26222 net.cpp:106] Creating Layer pool1
I0120 10:16:14.953088 26222 net.cpp:454] pool1 <- norm1
I0120 10:16:14.953093 26222 net.cpp:411] pool1 -> pool1
I0120 10:16:14.953119 26222 net.cpp:150] Setting up pool1
I0120 10:16:14.953125 26222 net.cpp:157] Top shape: 10 96 51 51 (2496960)
I0120 10:16:14.953126 26222 net.cpp:165] Memory required for data: 130343800
I0120 10:16:14.953128 26222 layer_factory.hpp:77] Creating layer conv2
I0120 10:16:14.953135 26222 net.cpp:106] Creating Layer conv2
I0120 10:16:14.953137 26222 net.cpp:454] conv2 <- pool1
I0120 10:16:14.953142 26222 net.cpp:411] conv2 -> conv2
I0120 10:16:14.966445 26222 net.cpp:150] Setting up conv2
I0120 10:16:14.966461 26222 net.cpp:157] Top shape: 10 256 51 51 (6658560)
I0120 10:16:14.966464 26222 net.cpp:165] Memory required for data: 156978040
I0120 10:16:14.966475 26222 layer_factory.hpp:77] Creating layer relu2
I0120 10:16:14.966483 26222 net.cpp:106] Creating Layer relu2
I0120 10:16:14.966487 26222 net.cpp:454] relu2 <- conv2
I0120 10:16:14.966492 26222 net.cpp:397] relu2 -> conv2 (in-place)
I0120 10:16:14.966717 26222 net.cpp:150] Setting up relu2
I0120 10:16:14.966727 26222 net.cpp:157] Top shape: 10 256 51 51 (6658560)
I0120 10:16:14.966729 26222 net.cpp:165] Memory required for data: 183612280
I0120 10:16:14.966732 26222 layer_factory.hpp:77] Creating layer norm2
I0120 10:16:14.966740 26222 net.cpp:106] Creating Layer norm2
I0120 10:16:14.966758 26222 net.cpp:454] norm2 <- conv2
I0120 10:16:14.966764 26222 net.cpp:411] norm2 -> norm2
I0120 10:16:14.966928 26222 net.cpp:150] Setting up norm2
I0120 10:16:14.966938 26222 net.cpp:157] Top shape: 10 256 51 51 (6658560)
I0120 10:16:14.966939 26222 net.cpp:165] Memory required for data: 210246520
I0120 10:16:14.966943 26222 layer_factory.hpp:77] Creating layer pool2
I0120 10:16:14.966948 26222 net.cpp:106] Creating Layer pool2
I0120 10:16:14.966950 26222 net.cpp:454] pool2 <- norm2
I0120 10:16:14.966955 26222 net.cpp:411] pool2 -> pool2
I0120 10:16:14.966986 26222 net.cpp:150] Setting up pool2
I0120 10:16:14.966991 26222 net.cpp:157] Top shape: 10 256 25 25 (1600000)
I0120 10:16:14.966995 26222 net.cpp:165] Memory required for data: 216646520
I0120 10:16:14.966996 26222 layer_factory.hpp:77] Creating layer conv3
I0120 10:16:14.967006 26222 net.cpp:106] Creating Layer conv3
I0120 10:16:14.967010 26222 net.cpp:454] conv3 <- pool2
I0120 10:16:14.967015 26222 net.cpp:411] conv3 -> conv3
I0120 10:16:14.992537 26222 net.cpp:150] Setting up conv3
I0120 10:16:14.992557 26222 net.cpp:157] Top shape: 10 384 25 25 (2400000)
I0120 10:16:14.992559 26222 net.cpp:165] Memory required for data: 226246520
I0120 10:16:14.992569 26222 layer_factory.hpp:77] Creating layer relu3
I0120 10:16:14.992578 26222 net.cpp:106] Creating Layer relu3
I0120 10:16:14.992591 26222 net.cpp:454] relu3 <- conv3
I0120 10:16:14.992597 26222 net.cpp:397] relu3 -> conv3 (in-place)
I0120 10:16:14.992746 26222 net.cpp:150] Setting up relu3
I0120 10:16:14.992753 26222 net.cpp:157] Top shape: 10 384 25 25 (2400000)
I0120 10:16:14.992766 26222 net.cpp:165] Memory required for data: 235846520
I0120 10:16:14.992769 26222 layer_factory.hpp:77] Creating layer conv4
I0120 10:16:14.992779 26222 net.cpp:106] Creating Layer conv4
I0120 10:16:14.992782 26222 net.cpp:454] conv4 <- conv3
I0120 10:16:14.992787 26222 net.cpp:411] conv4 -> conv4
I0120 10:16:15.012573 26222 net.cpp:150] Setting up conv4
I0120 10:16:15.012593 26222 net.cpp:157] Top shape: 10 384 25 25 (2400000)
I0120 10:16:15.012595 26222 net.cpp:165] Memory required for data: 245446520
I0120 10:16:15.012603 26222 layer_factory.hpp:77] Creating layer relu4
I0120 10:16:15.012609 26222 net.cpp:106] Creating Layer relu4
I0120 10:16:15.012612 26222 net.cpp:454] relu4 <- conv4
I0120 10:16:15.012627 26222 net.cpp:397] relu4 -> conv4 (in-place)
I0120 10:16:15.012871 26222 net.cpp:150] Setting up relu4
I0120 10:16:15.012881 26222 net.cpp:157] Top shape: 10 384 25 25 (2400000)
I0120 10:16:15.012883 26222 net.cpp:165] Memory required for data: 255046520
I0120 10:16:15.012887 26222 layer_factory.hpp:77] Creating layer conv5
I0120 10:16:15.012895 26222 net.cpp:106] Creating Layer conv5
I0120 10:16:15.012898 26222 net.cpp:454] conv5 <- conv4
I0120 10:16:15.012914 26222 net.cpp:411] conv5 -> conv5
I0120 10:16:15.026556 26222 net.cpp:150] Setting up conv5
I0120 10:16:15.026569 26222 net.cpp:157] Top shape: 10 256 25 25 (1600000)
I0120 10:16:15.026572 26222 net.cpp:165] Memory required for data: 261446520
I0120 10:16:15.026599 26222 layer_factory.hpp:77] Creating layer relu5
I0120 10:16:15.026617 26222 net.cpp:106] Creating Layer relu5
I0120 10:16:15.026620 26222 net.cpp:454] relu5 <- conv5
I0120 10:16:15.026624 26222 net.cpp:397] relu5 -> conv5 (in-place)
I0120 10:16:15.026875 26222 net.cpp:150] Setting up relu5
I0120 10:16:15.026885 26222 net.cpp:157] Top shape: 10 256 25 25 (1600000)
I0120 10:16:15.026888 26222 net.cpp:165] Memory required for data: 267846520
I0120 10:16:15.026891 26222 layer_factory.hpp:77] Creating layer pool5
I0120 10:16:15.026898 26222 net.cpp:106] Creating Layer pool5
I0120 10:16:15.026901 26222 net.cpp:454] pool5 <- conv5
I0120 10:16:15.026906 26222 net.cpp:411] pool5 -> pool5
I0120 10:16:15.026962 26222 net.cpp:150] Setting up pool5
I0120 10:16:15.026968 26222 net.cpp:157] Top shape: 10 256 12 12 (368640)
I0120 10:16:15.026970 26222 net.cpp:165] Memory required for data: 269321080
I0120 10:16:15.026983 26222 layer_factory.hpp:77] Creating layer my_fc6
I0120 10:16:15.027004 26222 net.cpp:106] Creating Layer my_fc6
I0120 10:16:15.027007 26222 net.cpp:454] my_fc6 <- pool5
I0120 10:16:15.027012 26222 net.cpp:411] my_fc6 -> my_fc6
I0120 10:16:18.991319 26222 net.cpp:150] Setting up my_fc6
I0120 10:16:18.991359 26222 net.cpp:157] Top shape: 10 4096 (40960)
I0120 10:16:18.991363 26222 net.cpp:165] Memory required for data: 269484920
I0120 10:16:18.991371 26222 layer_factory.hpp:77] Creating layer relu6
I0120 10:16:18.991381 26222 net.cpp:106] Creating Layer relu6
I0120 10:16:18.991385 26222 net.cpp:454] relu6 <- my_fc6
I0120 10:16:18.991394 26222 net.cpp:397] relu6 -> my_fc6 (in-place)
I0120 10:16:18.991621 26222 net.cpp:150] Setting up relu6
I0120 10:16:18.991629 26222 net.cpp:157] Top shape: 10 4096 (40960)
I0120 10:16:18.991642 26222 net.cpp:165] Memory required for data: 269648760
I0120 10:16:18.991644 26222 layer_factory.hpp:77] Creating layer drop6
I0120 10:16:18.991652 26222 net.cpp:106] Creating Layer drop6
I0120 10:16:18.991654 26222 net.cpp:454] drop6 <- my_fc6
I0120 10:16:18.991658 26222 net.cpp:397] drop6 -> my_fc6 (in-place)
I0120 10:16:18.991691 26222 net.cpp:150] Setting up drop6
I0120 10:16:18.991696 26222 net.cpp:157] Top shape: 10 4096 (40960)
I0120 10:16:18.991698 26222 net.cpp:165] Memory required for data: 269812600
I0120 10:16:18.991710 26222 layer_factory.hpp:77] Creating layer fc7
I0120 10:16:18.991719 26222 net.cpp:106] Creating Layer fc7
I0120 10:16:18.991721 26222 net.cpp:454] fc7 <- my_fc6
I0120 10:16:18.991726 26222 net.cpp:411] fc7 -> fc7
I0120 10:16:19.434111 26222 net.cpp:150] Setting up fc7
I0120 10:16:19.434135 26222 net.cpp:157] Top shape: 10 4096 (40960)
I0120 10:16:19.434139 26222 net.cpp:165] Memory required for data: 269976440
I0120 10:16:19.434146 26222 layer_factory.hpp:77] Creating layer relu7
I0120 10:16:19.434154 26222 net.cpp:106] Creating Layer relu7
I0120 10:16:19.434159 26222 net.cpp:454] relu7 <- fc7
I0120 10:16:19.434165 26222 net.cpp:397] relu7 -> fc7 (in-place)
I0120 10:16:19.434545 26222 net.cpp:150] Setting up relu7
I0120 10:16:19.434554 26222 net.cpp:157] Top shape: 10 4096 (40960)
I0120 10:16:19.434556 26222 net.cpp:165] Memory required for data: 270140280
I0120 10:16:19.434559 26222 layer_factory.hpp:77] Creating layer drop7
I0120 10:16:19.434566 26222 net.cpp:106] Creating Layer drop7
I0120 10:16:19.434568 26222 net.cpp:454] drop7 <- fc7
I0120 10:16:19.434571 26222 net.cpp:397] drop7 -> fc7 (in-place)
I0120 10:16:19.434607 26222 net.cpp:150] Setting up drop7
I0120 10:16:19.434622 26222 net.cpp:157] Top shape: 10 4096 (40960)
I0120 10:16:19.434623 26222 net.cpp:165] Memory required for data: 270304120
I0120 10:16:19.434635 26222 layer_factory.hpp:77] Creating layer my_fc8
I0120 10:16:19.434643 26222 net.cpp:106] Creating Layer my_fc8
I0120 10:16:19.434645 26222 net.cpp:454] my_fc8 <- fc7
I0120 10:16:19.434649 26222 net.cpp:411] my_fc8 -> my_fc8
I0120 10:16:19.435271 26222 net.cpp:150] Setting up my_fc8
I0120 10:16:19.435278 26222 net.cpp:157] Top shape: 10 5 (50)
I0120 10:16:19.435281 26222 net.cpp:165] Memory required for data: 270304320
I0120 10:16:19.435286 26222 layer_factory.hpp:77] Creating layer my_fc8_my_fc8_0_split
I0120 10:16:19.435291 26222 net.cpp:106] Creating Layer my_fc8_my_fc8_0_split
I0120 10:16:19.435293 26222 net.cpp:454] my_fc8_my_fc8_0_split <- my_fc8
I0120 10:16:19.435297 26222 net.cpp:411] my_fc8_my_fc8_0_split -> my_fc8_my_fc8_0_split_0
I0120 10:16:19.435302 26222 net.cpp:411] my_fc8_my_fc8_0_split -> my_fc8_my_fc8_0_split_1
I0120 10:16:19.435361 26222 net.cpp:150] Setting up my_fc8_my_fc8_0_split
I0120 10:16:19.435366 26222 net.cpp:157] Top shape: 10 5 (50)
I0120 10:16:19.435369 26222 net.cpp:157] Top shape: 10 5 (50)
I0120 10:16:19.435371 26222 net.cpp:165] Memory required for data: 270304720
I0120 10:16:19.435374 26222 layer_factory.hpp:77] Creating layer accuracy
I0120 10:16:19.435384 26222 net.cpp:106] Creating Layer accuracy
I0120 10:16:19.435386 26222 net.cpp:454] accuracy <- my_fc8_my_fc8_0_split_0
I0120 10:16:19.435390 26222 net.cpp:454] accuracy <- label_data_1_split_0
I0120 10:16:19.435396 26222 net.cpp:411] accuracy -> accuracy
…
